modelstate.pt (torch, 13476 bytes, 8 tensors)

model.0.weight f4 [25, 4]
000000 07 de 1b bd be e9 d3 bd 15 d5 e8 3e 47 65 72 3e
       -0.03805354 -0.10347317 0.4547507 0.23671447
000010 33 48 ed be 83 1c 6c be bc 57 c4 3e 7e 32 4f 3f
       -0.46344146 -0.23057751 0.38348186 0.8093642
000020 6d fc d6 3d 6a 80 43 be 7c 9e fd 3e ed 82 c6 be
       0.10497365 -0.19091955 0.49534976 -0.38771763
000030 fd 52 ad be 24 f2 0b bd 8e 7d 8e 3e 40 8c 6d 3e
       -0.33852378 -0.03416647 0.27830166 0.23198032
000040 c6 a7 76 3e 21 7a bf be f7 4d 31 3c e0 2d f7 3e
       0.24087438 -0.37397864 0.010821811 0.48277187
000050 4f f6 3f 3e 69 50 f1 be ee 88 0d 3f 03 f0 37 bd
       0.18746303 -0.4713166 0.55287063 -0.044906627
000060 43 4d ac be c4 ac bc 3e 9d d6 dc 3e 1b 5e cb 3e
       -0.33652696 0.3685056 0.43132487 0.39720234
000070 df d8 5c be a7 0c 08 be 75 7f ca be 72 4f 36 3f
       -0.21567105 -0.13286076 -0.39550367 0.71214974
000080 67 f5 ad 3e 02 43 f7 bd 0e c0 75 be 5f 08 fd bd
       0.3397629 -0.120733276 -0.23999044 -0.12355112
000090 02 5a 04 3f 7f 26 1e be 4a 4d 80 bd 72 c2 08 3f
       0.5169984 -0.15444373 -0.06264742 0.534217
0000a0 d3 6b 36 3e 4b e9 bd be f3 1b fd bd 92 91 f7 3e
       0.17814569 -0.3709205 -0.123588465 0.4835325
0000b0 b7 79 bd be db 8d d0 3e a1 9d 72 be c7 0d f8 bd
       -0.37006924 0.40733227 -0.23692943 -0.12112003
0000c0 9b 9b d8 3e a9 88 d5 3e c7 3a e6 be 02 2b 3c bf
       0.42306218 0.41705826 -0.4496672 -0.73503125
0000d0 b2 e9 05 bf 7a 6a 0f bf f2 14 f2 3e 60 7e 9a bd
       -0.52309716 -0.56021845 0.47281605 -0.07543635
0000e0 d9 39 da be 30 6e 9e bd 31 1d e3 3d d6 b3 42 3e
       -0.4262226 -0.0773586 0.11089552 0.19013914
0000f0 13 43 be 3e 47 c6 14 3f 90 62 7c be 00 1b 3a bf
       0.3716055 0.5811505 -0.24646974 -0.7269745
000100 93 e1 f3 3d 6c cd 35 be 52 70 b3 3e dc 8b 26 3f
       0.11908259 -0.17754143 0.3504663 0.6505716
000110 76 56 45 3e 42 01 a9 bd 07 8e 19 be 84 2c 27 bf
       0.19271263 -0.08252193 -0.14995585 -0.653023
000120 9d 9e 72 3e 46 07 93 be a1 87 f6 be 8c a2 9d bb
       0.23693319 -0.28716487 -0.48150352 -0.004810637
000130 b6 6e 02 3e e4 b4 f7 3e 3b 52 94 3e d6 38 7a 3e
       0.12737545 0.48380196 0.28968987 0.24435744
000140 a4 3a b3 be 93 9b 79 bd 97 ce e2 be b2 29 d2 bd
       -0.35005677 -0.060939383 -0.4429824 -0.10261859
000150 5b c9 1a bf 48 1e 7a 3d 11 0e fd bd e7 39 b3 3b
       -0.60463494 0.061064035 -0.123561986 0.005469549
000160 23 c5 00 be f1 ab 8f 3e 27 d5 a9 be 3a d7 02 bf
       -0.12575202 0.28060868 -0.33170435 -0.5110966
000170 af 1b e1 3d 85 c1 98 be ed c3 cd 3e 7a 84 9b b9
       0.10991608 -0.29835144 0.40188542 -0.00029662607
000180 46 0d a8 be ef 8e b4 3e 61 c8 f5 be 9a 8b 3b bf
       -0.32822627 0.352653 -0.4800444 -0.7325989

model.0.bias f4 [25]
000000 67 80 66 be c3 a3 12 bf 81 51 d6 3e 02 7b 14 bf
       -0.22509919 -0.5728113 0.41859058 -0.58000195
000010 67 2c 5a 3e ab 0f 58 be 02 2a 23 3d 0d 85 bb 3c
       0.21306 -0.21099727 0.039834984 0.022890592
000020 ad 90 2c 3d 8a 45 c7 be bb de 00 bf 61 b8 0b 3f
       0.04213016 -0.38920242 -0.5033986 0.54578215
000030 0a 1b 22 3e e2 1b 99 be 64 b7 43 be ac a5 85 3e
       0.15830627 -0.29904085 -0.19112927 0.2610296
000040 f7 36 eb be 10 10 8f 3e c9 22 01 3f fd 4f 00 bf
       -0.45940372 0.27941942 0.504437 -0.5012205
000050 17 2e 4e be e7 94 ee 3d 7a ac 82 bd 26 d3 52 be
       -0.2013477 0.116494946 -0.063805535 -0.20588359
000060 b3 a9 c8 3e
       0.3919197

model.2.weight f4 [30, 25]
000000 dc 85 59 ba e2 41 80 be f7 f6 f5 3c 13 20 93 ba
       -0.00082978397 -0.25050265 0.030024989 -0.0011224769
000010 73 4f 1f be f9 f9 0b 3c 0d 6e f1 3c d7 2f 02 be
       -0.15557651 0.008543485 0.029471422 -0.12713562
000020 76 1f 83 3e d0 01 ae 3d 72 2a a6 3c 06 87 22 be
       0.2560994 0.084964395 0.020283911 -0.1587182
000030 fc 9e 5c 3e 10 34 c8 bd 7b 93 a5 3c a0 6e 42 b9
       0.21545023 -0.09775555 0.020211926 -0.00018542493
000040 0e 14 d2 bc 83 c2 26 3d 55 64 0a bd e5 bd 9b bb
       -0.025644328 0.040712845 -0.03378709 -0.004752862
000050 4e 51 9d bd fb ec 0a be da 46 43 be ab a0 d8 3d
       -0.07681523 -0.13566963 -0.19069996 0.1057752
000060 17 ee 0c 3d 60 92 84 bd b3 f4 2e be f2 af ea 3d
       0.034406748 -0.06473231 -0.17085533 0.1145934
000070 cf cc 9e be e3 21 97 be f0 f9 70 be 3d 51 b6 be
       -0.31015632 -0.2951804 -0.23532844 -0.35608855
000080 a2 63 91 3e 09 93 c0 3d 5f 69 1c be d1 13 bb be
       0.28396326 0.09403045 -0.15274571 -0.36538556
000090 e2 c5 88 3e f8 46 0f 3e d1 e8 f8 3d b7 a1 27 3b
       0.26713473 0.13991916 0.12153781 0.0025578567
0000a0 2b d4 48 3e ac 5c df bd 4d c0 d9 3d b9 ad 87 3e
       0.19612186 -0.10906348 0.106323816 0.26499727
0000b0 4b e0 aa be 53 69 4b 3e 64 64 7e 3e 0f a9 95 3e
       -0.33374247 0.19864397 0.24842983 0.29230544
0000c0 56 5c 98 be c8 5e 2e 3e d0 09 9e be 29 31 11 be
       -0.29757947 0.17028344 -0.3086686 -0.1417891
0000d0 4d 5f 4c be bb 17 8e be 98 a5 a6 be c3 c2 1c be
       -0.1995823 -0.2775248 -0.32548213 -0.1530867
0000e0 0e 40 b7 bd f2 0f 96 3e 55 6a 8b 3c b5 12 b1 be
       -0.08947764 0.2930904 0.017018477 -0.34584585
0000f0 e5 45 71 3c 27 0b 49 3e 84 aa d8 3c 34 ac 8b be
       0.014726137 0.1963316 0.026448496 -0.27279818
000100 88 c5 d3 3d 8f 91 61 3d e8 cc 1e bd 74 e4 d5 3d
       0.103404105 0.055070456 -0.038769633 0.104439646
000110 02 cf f4 3c d1 08 60 be a9 85 e0 3d 4c 49 a1 3e
       0.029883865 -0.21878363 0.10962994 0.31501234
000120 8c 0f d4 3c 38 70 75 be 57 18 b1 3e 8e c1 a8 be
       0.02588632 -0.2396859 0.34588882 -0.3296017
000130 cf d8 4f be 0a 1a 40 be d7 42 72 bd d5 39 5a be
       -0.2029755 -0.18759933 -0.059145775 -0.21311124
000140 97 78 94 3a 01 0c 91 be ee 72 b6 bc aa 41 b6 bd
       0.0011327442 -0.2832947 -0.0222716 -0.08899243
000150 3b 09 a2 be 33 d4 3b 3d c2 39 ba 3e 0d a9 94 3e
       -0.31647667 0.045856666 0.3637219 0.29035226
000160 8a 2c e6 3d cd 58 93 bc c9 10 2c 3d 43 20 9f be
       0.11238964 -0.01798668 0.042008195 -0.310793
000170 5c 5f a3 3e fd ca 2d 3e dd 3d 8f bd c0 26 ec 3d
       0.3190869 0.16971965 -0.06994221 0.115308285
000180 7a 41 bc 3e a3 d9 b7 3d 59 92 80 be 4a 22 a2 3e
       0.36768705 0.08977058 -0.25111654 0.31666785
000190 cf 47 58 be 4d 88 bb be 3c 3a 97 3d ef 4b a2 bd
       -0.21121143 -0.36627427 0.07384154 -0.079246394
0001a0 bd 7b d8 bd c7 b6 60 be 74 74 77 be a3 6b e8 bd
       -0.10570476 -0.21944724 -0.24165517 -0.11348655
0001b0 55 8e 49 3e 94 2c b0 bd 41 6e 8f be 50 f5 0e 3e
       0.19683202 -0.086022526 -0.28013805 0.13960767
0001c0 9d 8a af 3d 1a 75 c9 3b 5e 73 e6 3d e9 f9 93 3e
       0.0857136 0.006147993 0.11252473 0.28901604
0001d0 0f 9b e6 be 62 03 96 3e 47 9b 6f 3b e7 18 b2 be
       -0.45040175 0.29299456 0.0036561058 -0.34784624
0001e0 27 a9 9f 3e 9f 27 82 bc 46 f8 d3 3c cb b7 f3 bd
       0.3118374 -0.015888033 0.025875222 -0.1190029
0001f0 22 00 8e 3e 9a 10 a6 bd a3 45 90 3e 5a ef 85 be
       0.27734476 -0.08108635 0.2817813 -0.26159173
000200 26 42 f0 bd 6e 8e 15 bd 06 86 67 3d b5 ea b0 3d
       -0.11731367 -0.036512785 0.0565243 0.08638517
000210 f9 fe a8 bc c4 ce 76 3d da fb 44 3e 7b 75 78 3e
       -0.020629393 0.06025578 0.19236699 0.24263565
000220 9d 96 0b 3e 22 90 04 3e 76 9b a2 be a4 c7 9b bd
       0.13631673 0.12945607 -0.31759232 -0.07606438
000230 fc 41 ef 3b 0f 60 8e bd f6 93 aa bd 6c 39 0f 3d
       0.007301567 -0.069519155 -0.083290026 0.03496687
000240 08 6a 06 3e 74 79 0b bc 17 20 3c be 17 68 0f 3e
       0.13126385 -0.008512843 -0.18371616 0.14004551
000250 23 60 a7 be da 4d 50 3d 58 7f 98 be 91 f5 e6 bd
       -0.32690534 0.050855495 -0.29784656 -0.11277307
000260 1d b7 57 be 78 72 71 be 98 12 98 be 22 37 8a 3d
       -0.21065946 -0.23578823 -0.29701686 0.06748797
000270 e5 1c a1 be f9 eb 85 3e 8c 04 6f bd 97 f9 40 be
       -0.31467357 0.26156595 -0.058353946 -0.18845211
000280 90 44 54 be 80 c4 84 3e de ec 53 3e 20 ea e7 bd
       -0.2072928 0.25931168 0.20695826 -0.11323953
000290 56 0c e3 bd b8 de 18 3d 0c 9f ae be 87 10 ee 3e
       -0.11086337 0.037321776 -0.34105718 0.46496984
0002a0 b0 be 6b bc 8f ee 0c 3d 68 d4 98 3e f4 65 04 bd
       -0.014388725 0.034407195 0.29849553 -0.032323793
0002b0 36 36 b2 3e 6a c6 5c be 9f f6 b7 3e db 6c f3 3d
       0.34806985 -0.21560064 0.35930344 0.11885997
0002c0 5d a4 9e 3e 5f d9 a6 bd 27 3c 38 3e 32 a7 6a 3e
       0.30984774 -0.08146929 0.17991696 0.22915342
0002d0 38 22 f4 3d 1d 26 f0 bc 76 30 6d 3e fc 01 e1 3d
       0.11920589 -0.029315049 0.23163018 0.109867066
0002e0 b0 43 46 3e 35 e3 82 3e c5 6c 15 be ab 08 e3 bd
       0.19361758 0.2556397 -0.14592274 -0.11085638
0002f0 f3 00 58 bc d6 0e 07 3e 0d c2 7c be d9 ee 3e 3d
       -0.01318382 0.13189253 -0.246834 0.0466145
000300 d6 38 89 bb b5 b2 20 be d4 a4 24 be 27 2c 7d bd
       -0.0041876836 -0.15693171 -0.16078502 -0.061809685
000310 ac 26 4c bd 27 ff 90 bd 10 ad 36 3d de d2 77 be
       -0.049841568 -0.070799164 0.04459864 -0.24201533
000320 86 fd 07 3e 7c 9b a3 3e 7a d2 0d be 39 8b b7 3e
       0.13280305 0.31954563 -0.13849822 0.35848406
000330 91 01 ed 3d 9b 97 33 3e e9 16 98 3e 37 af 21 3e
       0.115725644 0.17538302 0.2970498 0.15789495
000340 b3 f9 55 be 30 58 38 bd 8c f8 92 3d 24 7f 04 3e
       -0.20896034 -0.045005977 0.07176313 0.12939125
000350 ab 19 14 be 52 76 38 3e 6c 59 18 bb d3 80 ca be
       -0.14462917 0.18013886 -0.002324666 -0.3955141
000360 f1 4f 92 3e be 1b 39 be dd 90 0e bd c0 50 8a bd
       0.28576615 -0.18076989 -0.03480612 -0.06753683
000370 b9 ba 34 3d 06 df 87 3e 9a 98 81 be 9d cd 86 3d
       0.044123385 0.2653734 -0.25311738 0.06582186
000380 63 37 a1 be 4f 53 a4 3e ed 02 86 3e 87 f9 0c bd
       -0.3148757 0.3209481 0.26174107 -0.034417655
000390 ef 02 88 3e 1e 98 04 3e 19 96 9c 3d d9 fc ed bc
       0.26564738 0.12948653 0.07645816 -0.029051231
0003a0 79 72 75 3d 0d dc a1 be 53 ab 8a be 70 c8 c4 3d
       0.059923623 -0.31613198 -0.27083835 0.09608543
0003b0 b5 9f 61 be 4a 97 84 be 26 c5 60 3d 8f 76 98 3e
       -0.2203358 -0.25896674 0.054875515 0.29777953
0003c0 68 99 0f be e5 63 7f 3e e4 f1 b2 be cb 37 2e bd
       -0.14023364 0.2494045 -0.34950173 -0.042533677
0003d0 16 03 b8 3d f5 76 b2 bd 8d 14 ce 3d 82 06 93 3c
       0.089849636 -0.087140955 0.100625135 0.01794744
0003e0 f9 f7 8b 3e 8a f7 f2 bd 09 5f 86 be 63 53 47 3e
       0.27337626 -0.118636206 -0.2624438 0.19465403
0003f0 89 e8 c7 be 2d a0 8f 3d 11 09 26 bd 4e 7b 18 be
       -0.39044598 0.07012973 -0.04053599 -0.14890787

model.2.bias f4 [30]
000000 f3 be 13 3e 88 7c 78 3d d6 d0 39 be bf 9a 0e be
       0.1442831 0.060665637 -0.18146071 -0.13926218
000010 2c 7b dd 3d 7b 96 91 be 15 0e 5c 3d fd ef a0 3d
       0.10814509 -0.2843512 0.053724367 0.07858274
000020 8d 07 07 be 2c ab 86 bd c0 7e 95 be 5b 6d ab 3c
       -0.13186474 -0.06575617 -0.29198265 0.020926168
000030 85 ae 8f bd f1 f0 b3 bd e2 ff ce 3d 79 d4 f2 bd
       -0.07015709 -0.0878619 0.101073995 -0.11856932
000040 6d 65 26 bd 60 50 4b be 37 ef 86 3e ac a8 89 be
       -0.04062407 -0.1985488 0.2635438 -0.268865
000050 ce 3f 06 bd b0 38 21 3d 84 72 0e bd c1 af 84 bd
       -0.032775693 0.039360702 -0.03477718 -0.06478835
000060 35 a5 97 3c a0 cf c6 bd 2b 5f 3c be f6 d3 c2 be
       0.018511394 -0.0970757 -0.18395679 -0.38052338
000070 97 ad 12 3d d5 19 ad be
       0.03581008 -0.3380877

model.4.weight f4 [50, 30]
000000 c9 fa e4 3d 58 ba 77 bd 1e d3 b0 3d f6 47 ac 3c
       0.11180646 -0.060480446 0.086340174 0.021030407
000010 35 79 17 3d a8 1c 6f be d9 ee 27 3e b8 47 9d bd
       0.036980826 -0.23350775 0.16399707 -0.07679695
000020 f4 b6 41 be fa 1b 49 bd 5f 18 c4 bd 30 d5 bd bd
       -0.18917447 -0.049098946 -0.09574961 -0.09269178
000030 a5 86 0b 3d b9 d8 b1 be 58 49 4a 3b e5 98 a3 be
       0.034063954 -0.3473566 0.003086647 -0.31952587
000040 77 cd 56 be a2 17 9f be ee f2 dd bd 9a 55 a2 be
       -0.20976816 -0.31072718 -0.10837351 -0.31705934
000050 ad b0 f1 3d 55 8f 45 be 89 1f ac 3b 92 46 c2 3a
       0.11801276 -0.19292958 0.0052527827 0.0014822057
000060 94 32 6b be 19 f4 22 be bc d2 2e be b3 b4 21 be
       -0.22968513 -0.15913428 -0.17072576 -0.15791588
000070 a4 bb 4f be b4 e8 52 be c6 18 69 3d 5d 5e 3e 3e
       -0.20286423 -0.20596582 0.05690839 0.18590684
000080 91 7b 5c 3e 9e 56 0c 3e cc 68 6b be cd 8c 9a 3c
       0.21531512 0.13704917 -0.22989196 0.018865967
000090 05 65 0d 3e e7 be 56 3e e7 0e 92 3e 3f 68 67 3e
       0.13808067 0.20971261 0.28526995 0.2259836
0000a0 fc db 14 3c ff 1d 35 3e 77 50 2b be 54 50 5b 3c
       0.0090856515 0.17687224 -0.16729914 0.013385851
0000b0 3e 91 f0 3d 1f b7 19 3d 46 49 80 3e b7 06 e4 3d
       0.11746453 0.037528154 0.25055903 0.11134093
0000c0 1f e2 9c bd fb 41 2e 3e 91 44 ca 3c ec 92 5c 3e
       -0.07660317 0.17017357 0.024690898 0.21540421
0000d0 f3 27 25 3e 86 00 e8 3c 2d b1 0b 3e 4f 6a 4c 3e
       0.1612852 0.028320562 0.13641806 0.19962429
0000e0 12 e2 0e 3e cd 8a 11 3e 00 2e 8d 3e 9b dd 93 3e
       0.13953426 0.14213105 0.27574158 0.2888001
0000f0 23 a4 28 be b3 4f 20 3e 2b 27 33 be 0b 92 27 3e
       -0.16468863 0.15655403 -0.1749541 0.16364305
000100 e9 e2 00 3e 68 f5 67 bd 9a 33 05 3e 62 77 3e bd
       0.1258656 -0.056630522 0.13007966 -0.04650057
000110 89 57 67 be b7 d5 aa be e0 d5 48 3d 16 39 50 bc
       -0.22591986 -0.33366176 0.049032092 -0.012708923
000120 0a b0 8c bd fe 5e 97 be 0f 30 9b bd 69 e6 be be
       -0.06869514 -0.2956466 -0.07577526 -0.37285164
000130 a0 cf 90 be aa e2 bd be a0 96 6a 3a 88 dd 5d be
       -0.28283405 -0.37086993 0.00089488365 -0.21666539
000140 09 5f 53 3d 77 6d 9e bd b0 45 7f bd b4 d2 da bd
       0.051604304 -0.077357225 -0.06232232 -0.1068472
000150 78 76 85 be 4b 57 cb bd a1 fa 89 be b9 ef a2 be
       -0.26066947 -0.09928759 -0.26949027 -0.3182352
000160 3f 53 45 be 7b 3a 96 be 9f d7 32 be c3 4c 70 3d
       -0.19270037 -0.29341492 -0.17465065 0.058666956
000170 ee cc 2a bd 18 6a 0f be 4f 86 02 3e da e6 0d 3d
       -0.041699342 -0.14005315 0.12746547 0.034643985
000180 8d ec 1f be ac f4 a9 be 2a 19 9d be ea 55 40 be
       -0.1561758 -0.33194482 -0.3068326 -0.18782774
000190 8d ff 16 bd 76 0b ec bd 12 76 a2 bd 93 7b 9c be
       -0.036864806 -0.115256235 -0.079326764 -0.3056303
0001a0 4e 3c 86 3d 3c d5 1d be 4f d5 9b be 83 17 91 be
       0.06554471 -0.15413374 -0.3043618 -0.2833825
0001b0 db d2 f1 bd f1 38 a0 bd 93 bf 81 3d 36 26 2f be
       -0.118077956 -0.07823361 0.06335368 -0.1710442
0001c0 72 8c ae 3c df aa 84 3e 35 e7 3a be ec 69 a7 be
       0.021307204 0.25911614 -0.18252261 -0.32698
0001d0 7a 9e d5 bd ba aa 13 be 6b d8 86 bd 23 62 4e be
       -0.10430618 -0.14420596 -0.06584247 -0.20154624
0001e0 1d 68 23 3c 17 7c 8a 3d 60 90 8b be 87 86 93 be
       0.009973553 0.067619495 -0.27258587 -0.28813574
0001f0 4c 6b 9f 3d 76 cb ce bd 85 2f f2 3c 97 38 0f be
       0.07784137 -0.10097401 0.029563675 -0.13986431
000200 05 19 c8 3c 89 d6 8b 3d 42 c0 9b be d8 8e 3c be
       0.024425993 0.06828029 -0.3042012 -0.18413866
000210 2e 9d 9f 3d d2 92 3f bd 8e de bf bd 95 58 73 3b
       0.077936515 -0.046770878 -0.09368621 0.0037131656
000220 42 22 91 be b8 ed 13 3c ae 5e 05 be 2b c4 24 3d
       -0.2834645 0.009028845 -0.13024399 0.040226143
000230 55 0b 8f be 47 cb 14 be 8a 43 90 be c3 83 c4 bd
       -0.27938333 -0.14530669 -0.28176528 -0.09595444
000240 3e 84 6b be bb 36 ac 3c 7e 92 ab be 47 4d 95 be
       -0.22999665 0.021022191 -0.33510202 -0.2916052
000250 16 a3 93 bc cd 22 9d be 84 80 68 be 16 fa 1b be
       -0.018022101 -0.30690613 -0.22705275 -0.15232119
000260 7d 90 63 3d b5 21 aa bb 7a f6 87 be 14 b6 76 3d
       0.055557717 -0.0051920065 -0.26555234 0.060232237
000270 0a d6 82 be ce ab 87 3e bf 05 f7 3d 0e bc 80 3e
       -0.25553924 0.26498264 0.12061643 0.25143474
000280 e5 4e 84 3d 25 7d 91 bc 78 b0 3f bc eb 4c 34 3e
       0.064603604 -0.017759869 -0.011699788 0.17607467
000290 78 19 81 bd dc 19 d0 3c e8 31 5f 3e 1b 9e 81 3e
       -0.06303686 0.025402956 0.21796381 0.25315937
0002a0 71 6e c7 bd 51 3b a1 3e 63 0e 9f be 1d 16 07 3e
       -0.09737862 0.31490567 -0.31065664 0.1319203
0002b0 6f b1 41 be 13 d4 36 bd e4 e4 c0 bd 8a 88 8e 3e
       -0.18915342 -0.044635843 -0.094186574 0.27838546
0002c0 ec a6 81 3e 74 c1 05 3d 20 0b f7 3c de 3f ae bd
       0.25322664 0.032655194 0.030156672 -0.085082754
0002d0 4b 4d f8 bd 89 0f 38 3e 1c 73 5b 3d 4b 90 22 3d
       -0.121241175 0.17974676 0.053576574 0.03968839
0002e0 12 3c c0 bc f4 fb 1a 3e 6f 48 4c 3e 24 b0 ee 3c
       -0.023466144 0.15135175 0.19949506 0.029136725
0002f0 f7 f4 89 bd 85 a8 1c 3e e2 cf 88 3c b2 f3 1a 3d
       -0.067361765 0.1529866 0.016700689 0.037830062
000300 b7 4a 4e 3e 31 3f bb bd b7 a7 8d bd aa 28 93 bc
       0.20145689 -0.09142912 -0.06916755 -0.017963726
000310 e7 9b d5 3c cb 6c 2d 3d 23 3c 9c 3c cb 53 6c 3e
       0.026075317 0.04234008 0.019071644 0.2307884
000320 d8 49 04 3b 34 28 40 3e ab cf af 3d 6b a4 55 bd
       0.0020185616 0.18765336 0.085845314 -0.052158754
000330 4d 93 9b bd b1 c8 cb 3d 5d c5 2c 3e 4f f3 82 bd
       -0.07596455 0.09950388 0.16872163 -0.06394064
000340 3f e7 41 bc dc 39 24 3e 26 53 17 bc 52 90 6e be
       -0.0118349185 0.16037697 -0.009236133 -0.23297241
000350 21 ba 79 be 9a df b0 be d1 b0 b2 be 42 d7 c4 bb
       -0.24387409 -0.34545594 -0.34900525 -0.006007106
000360 22 b4 96 be 87 70 27 bd 1b 08 4d 3e 17 08 32 3e
       -0.29434305 -0.0408788 0.20022623 0.17385899
000370 3e 30 76 be 60 53 5d be fd bc a4 be 75 be 92 3e
       -0.2404184 -0.21613836 -0.32175437 0.28660932
000380 23 19 80 be 5b 43 5b 3e 85 9f a3 3c 98 ab 02 3e
       -0.25019178 0.21412413 0.019973526 0.1276077
000390 a6 84 0e bd 4b e2 72 3e 25 59 a6 be e7 74 05 3e
       -0.034794472 0.23719136 -0.32489887 0.13032876
0003a0 81 0b ad be 00 06 a7 bd 9d 27 a0 3c c2 fc 2e 3e
       -0.3379784 -0.08155441 0.01955014 0.17088607
0003b0 07 a4 76 3e f4 af 26 3e c8 50 97 3d 22 18 60 3c
       0.24086009 0.16278058 0.07388455 0.013677629
0003c0 70 3e 3e be c8 83 d9 bc d2 4d e7 bd c3 51 d0 3d
       -0.18578506 -0.026552096 -0.1129414 0.10171845
0003d0 f9 87 9b 3d 18 6b c1 bd e1 f8 18 be 17 0f 09 be
       0.07594294 -0.09444255 -0.1493869 -0.13384663
0003e0 52 c1 10 be ee 7c b1 3d b4 fe 40 bd a8 95 8e bd
       -0.14136246 0.086664066 -0.047117904 -0.069621384
0003f0 c6 fd 04 3e a9 ec 08 3e bf ff 29 be 1c 2a c2 bd
       0.12987432 0.13371529 -0.16601466 -0.09480688

model.4.bias f4 [50]
000000 b5 5a 96 3e 84 28 24 be 3f ac 3f 3e 67 7b 97 3e
       0.2936608 -0.1603108 0.1871805 0.29586336
000010 2b 90 a0 3e fe 73 55 3c 48 af ec 3b 6f 12 08 be
       0.3135999 0.013028143 0.0072230436 -0.13288282
000020 01 9b 09 3d 43 ca a0 bd 14 24 c6 bc b0 10 9f 3d
       0.03359509 -0.07851078 -0.024187125 0.07766855
000030 b8 8d 69 3d 8f fa 4d bd 2e 40 03 be e5 55 41 3d
       0.05701992 -0.05028778 -0.12817451 0.047201056
000040 9b e7 8d bd bf c5 94 3e a1 cf f3 bc 03 e7 be bd
       -0.06928941 0.29057118 -0.029762091 -0.09321406
000050 e8 86 53 be a8 b6 4d 3e b3 f7 09 3d fd 95 d2 3d
       -0.20656931 0.20089209 0.03368349 0.10282514
000060 6c 90 93 3c 89 21 94 be 78 42 c1 3d b6 52 eb bd
       0.018013202 -0.28931835 0.09436506 -0.11490385
000070 e0 d6 51 be 72 6c 8a bb 76 2e 51 3e e0 43 c1 3d
       -0.20492125 -0.0042243535 0.2042788 0.09436774
000080 68 4c 0b bd 4e a5 11 bd de bb 80 bd 7b 9c 96 3d
       -0.034008414 -0.035558037 -0.06285833 0.07354065
000090 23 fa 05 3e 07 a9 17 3e e3 9b 97 3d 3b ee 16 3e
       0.13083701 0.14810573 0.0740278 0.14739315
0000a0 ed b7 92 bc 0e 18 75 3d f1 90 d3 3d d0 f4 17 3e
       -0.017909968 0.059837393 0.1033038 0.14839482
0000b0 22 f1 8a 3e 73 e1 90 3d 2e f0 21 be 89 e8 45 3e
       0.27137095 0.07074251 -0.15814278 0.19326986
0000c0 6c d2 34 bd 69 54 59 bd
       -0.044145986 -0.053059015

model.6.weight f4 [3, 50]
000000 2f 1c 4d 3e 7e 99 08 3e 26 e4 21 3e 0e 8d 49 3e
       0.20030282 0.13339803 0.15809688 0.19682714
000010 e7 82 a3 be ac be 2b be ef 04 58 3c f7 43 66 be
       -0.31935808 -0.16771954 0.01318477 -0.22486864
000020 0d 0c 73 be a1 56 b1 bd 06 6c 76 3e 24 d5 60 3e
       -0.23735066 -0.08659101 0.24064645 0.21956307
000030 21 b4 95 be df cd 67 be 04 57 e0 bd 5b a6 5e 3e
       -0.2923899 -0.22637127 -0.10954097 0.21743147
000040 54 f1 84 3e 95 85 12 3e a3 03 27 3d d7 89 5b be
       0.2596537 0.1430877 0.040774953 -0.214393
000050 7b 40 93 bd dd 0e 53 3e 6d 0a 60 3e 80 c3 42 3e
       -0.07190033 0.20611139 0.21878977 0.1901989
000060 5a e0 a6 be db ea f9 3b 11 fb 63 3e e6 55 78 3e
       -0.32593042 0.007626874 0.22263743 0.24251518
000070 c0 03 7a be fd d2 a2 3e c4 9a 8a 3d 4d c1 84 3e
       -0.24415493 0.31801596 0.067678005 0.25928727
000080 6a 73 62 3e cf 5d 27 3c 16 47 88 be 8b 5e 19 3e
       0.2211434 0.010215237 -0.26616734 0.14977472
000090 c2 6f 94 be 7c c7 39 3e 0a 12 06 3e 5c c8 fa 3d
       -0.28991514 0.18142503 0.13092819 0.12245247
0000a0 e0 20 10 3e 37 f2 90 3e 8f c1 09 be 80 f0 74 3e
       0.14075041 0.28309795 -0.13452743 0.23919868
0000b0 5c bb 94 be 5e db 7c bc ca 2c 22 bc 73 64 62 3e
       -0.29049194 -0.015433161 -0.009898374 0.22108631
0000c0 c4 06 4e 3e d2 4f 5a be 10 e9 96 3b 38 4f 28 be
       0.20119768 -0.21319512 0.00460542 -0.1643647
0000d0 ad 2d f4 3d 07 f4 7c 3e 1c df 0b 3e 73 88 c0 3c
       0.119227745 0.24702464 0.13659328 0.023502564
0000e0 16 34 bd bd a2 72 d9 3d 86 ef 3a 3e 8d 6a 3a 3d
       -0.0923845 0.106175676 0.18255433 0.04551177
0000f0 ab ca 33 3e f3 3b 57 3e b4 e1 19 bd e0 05 1f be
       0.1755778 0.21018963 -0.037568763 -0.15529585
000100 9f eb ee 3d 68 12 66 3e da 62 37 be b5 52 8d 3e
       0.11666035 0.22467959 -0.17908803 0.27602163
000110 08 2e 14 3d 03 95 3a bd 0b 5a ac be bb e4 3c 3e
       0.03617671 -0.045552265 -0.33662447 0.18446629
000120 2b e6 d3 bd 53 c1 99 3d ec bd 96 bd 9c e3 2c be
       -0.103466354 0.07507577 -0.073604435 -0.16883701
000130 e0 ff 83 be e3 e5 57 bd 3b 56 9f be 7b e1 0a be
       -0.25781155 -0.05270947 -0.31120476 -0.13562576
000140 8d bc 3f 3e 74 b1 1b 3e fb f1 e9 bd 96 e5 4d bd
       0.1872427 0.15204412 -0.11423107 -0.05026778
000150 06 20 07 3e c1 c4 62 3d b5 cb bb 3d 95 d5 6d 3e
       0.1319581 0.05536342 0.091697134 0.23226006
000160 1e 60 c4 3c e8 2a 19 be 95 bb 5a be 83 a3 88 be
       0.023971613 -0.14957774 -0.2136062 -0.2668725
000170 23 eb 08 3e 63 c0 03 be 40 29 ce 3d de d6 a4 bd
       0.13370948 -0.12866358 0.100664616 -0.08048795
000180 ad 66 f9 bc 45 52 74 3e 57 66 3e 3e 8a 85 11 bd
       -0.030444467 0.23859508 0.18593727 -0.035527743
000190 eb 7b d5 be 45 63 37 3e 48 9d a0 be d7 8d 89 be
       -0.41696104 0.17908962 -0.31369996 -0.26866028
0001a0 72 1f c8 bc ce 6b 7b 3e ea 46 57 bd 2a cb 74 3e
       -0.024429057 0.24552843 -0.052557863 0.23905626
0001b0 a1 58 e0 bc 3a 4b 71 3e bb 94 bd be ed e6 2d be
       -0.027386012 0.23563853 -0.37027535 -0.16982622
0001c0 ab 4e 95 3e cb c9 9e 3e b5 62 ac 3e 60 48 99 be
       0.2916158 0.3101333 0.33669057 -0.2993803
0001d0 64 87 c6 b9 f4 29 a5 bd 25 2b e3 bc 85 60 08 3e
       -0.00037866377 -0.080646425 -0.027730534 0.1331807
0001e0 48 99 0c 3e 18 34 80 be e9 bb 2d be 2f 39 c4 be
       0.13730347 -0.25039744 -0.16966213 -0.38324878
0001f0 92 e6 0d 3e c9 fc 89 3e 53 3e 58 be 9a 9a 74 be
       0.13857487 0.26950672 -0.21117525 -0.23887101
000200 bf 7d 19 3e 25 26 d5 bd b0 f9 b4 be 98 35 df be
       0.14989375 -0.10407666 -0.35346746 -0.43595576
000210 19 d2 04 be 9e c2 ab be b4 6e 85 3e c7 69 a0 3b
       -0.12970771 -0.3354692 0.26061022 0.004895422
000220 fc 6b 12 3e f2 7d b5 be 15 80 a7 be c7 1d 7d be
       0.14299005 -0.3544765 -0.32714906 -0.2471839
000230 d7 30 5e be db f4 38 be 76 73 4b 3e bc 65 24 be
       -0.21698318 -0.18062155 0.19868264 -0.16054434
000240 c6 fd bf 3d eb 15 81 3d 80 e8 31 3e be 5a 3f be
       0.09374575 0.06303009 0.17373848 -0.18686959
000250 3b e0 8c be 84 be 38 3d
       -0.27514824 0.045103565

model.6.bias f4 [3]
000000 c2 c5 d9 bd 05 72 5e 3e b9 78 4a bc
       -0.106334224 0.21723182 -0.012357884
